app/src/main/ml/crop_tflite_model.tflite (tflite, 3848 bytes, 6 tensors)

dense_2/bias f4 [22]
0	0x3f0d820f	0.5527658
1	0x3ea5f9f1	0.32417253
2	0x3f207c19	0.6268936
3	0x3e83e71b	0.25762257
4	0xbf4454e2	-0.7669202
5	0xbe5915fc	-0.21199793
6	0xbe829d2c	-0.25510538
7	0xbf178b8b	-0.591973
8	0xbf13d785	-0.5775073
9	0x3e073ce9	0.13206829
10	0x3fd9cb45	1.7015158
11	0x3fb232bc	1.3921733
12	0x3e0939d1	0.13400961
13	0x3f736830	0.9508085
14	0xbf7df047	-0.9919476
15	0xbf845f04	-1.0341496
16	0xbf547476	-0.82990205
17	0xbfba575a	-1.4557908
18	0xbd8d76e6	-0.06907444
19	0xbef6e2f7	-0.48220035
20	0xbf026f9e	-0.50951564
21	0xbebd2d23	-0.369485

dense_1/bias f4 [10]
0	0x3dc7183f	0.097214215
1	0xbcc0d91b	-0.023541024
2	0x3f41ebd5	0.75750476
3	0xbcd5c6dd	-0.026095802
4	0xbecf695d	-0.40510073
5	0x3e690f57	0.22759758
6	0x3e638e1e	0.22222182
7	0xbf3ce303	-0.7378389
8	0xbc206e83	-0.009791973
9	0x3ecb143a	0.3966387

dense/bias f4 [15]
0	0xbe918856	-0.2842433
1	0xbed1b38e	-0.40957302
2	0x3e025b93	0.12730245
3	0x3db9b8e0	0.09068465
4	0xbf52e0dc	-0.8237436
5	0xbee90c2b	-0.45517096
6	0x3df940e9	0.12170584
7	0xbd2d6b96	-0.04233893
8	0xbe07fc66	-0.13279876
9	0x3c4d6938	0.012537293
10	0x3e0f637f	0.14002798
11	0x3f03ce5d	0.5148676
12	0x3ea0e2ba	0.3142298
13	0x3f564caa	0.8371073
14	0x3eee9f7f	0.4660606

model/dense/MatMul f4 [15, 7]
0	0x3efd8c7a	0.49521238
1	0x3d2ec3ae	0.042667083
2	0xbf12086a	-0.5704409
3	0x3ebf5c60	0.37375164
4	0x3e0767b9	0.13223161
5	0x3ed4b259	0.41542318
6	0xbeb6e642	-0.35722548
7	0xbe7299fb	-0.23691551
8	0xbd7f90f9	-0.062394116
9	0xbccbe04d	-0.024887228
10	0xbda1167f	-0.07865619
11	0x3f2a3538	0.66487455
12	0xbf3b7641	-0.73227316
13	0xbeec6866	-0.461734
14	0xbe939384	-0.28823483
15	0x3c99d6c0	0.018779159
16	0xbe64ae7a	-0.22332183
17	0xbe97d4e5	-0.29654613
18	0x3ea8fc57	0.3300502
19	0x3f2fd419	0.6868301
20	0x3e1898c1	0.14902021
21	0x3f0f08b9	0.55872685
22	0xbf11ef03	-0.5700533
23	0xbea7037e	-0.32619852
24	0x3e3f39aa	0.18674341
25	0xbed469af	-0.4148688
26	0x3dbe7a6f	0.09300696
27	0x3e6458ba	0.22299471
28	0xbe1d60da	-0.15368977
29	0xbca7a576	-0.02046464
30	0xbf001db1	-0.50045305
31	0xbe6f88b4	-0.23391992
32	0x3f183d40	0.5946846
33	0xbf7d7a98	-0.9901519
34	0x3e72d413	0.23713712
35	0xbebb246b	-0.36551222
36	0x3e8fd0cb	0.28088984
37	0x3f19d71a	0.60093844
38	0xbeeff647	-0.46867582
39	0x3f1becff	0.609085
40	0xbf39bc8e	-0.72553337
41	0xbeb45c8d	-0.3522686
42	0xbe06e3e9	-0.13172878
43	0x3e24c97d	0.16092487
44	0x3e1422ba	0.14466372
45	0x3e9e881b	0.30963215
46	0x3ee93324	0.4554683
47	0xbde302f1	-0.110845454
48	0x3da99b94	0.08281627
49	0x3eea0bb0	0.45712042
50	0x3ec07433	0.37588653
51	0xbd8055c5	-0.06266359
52	0x3eeb4963	0.45954427
53	0xbe5dc1ac	-0.21655911
54	0x3e23aca1	0.15983821
55	0xbd70f100	-0.058823586
56	0xbee0d53e	-0.4391269
57	0x3e2a7049	0.16644396
58	0x3e405697	0.18783031
59	0x3e59cab3	0.2126873
60	0x3dc20123	0.09472873
61	0xbf341a3a	-0.7035252
62	0x3edbd839	0.42938402
63	0x3ee3836e	0.4443621
64	0xbe771f57	-0.24133049
65	0x3eced25f	0.40394875
66	0xbe2d529e	-0.16926047
67	0xbac89489	-0.0015303056
68	0x3d7ddae3	0.061976325
69	0xbf02b1e3	-0.51052684
70	0x3df14c78	0.117821634
71	0x3f080feb	0.5314929
72	0x3ebbb109	0.36658505
73	0xbe829ee9	-0.25511864
74	0xbd3efe42	-0.046629198
75	0x3d5b43b1	0.053531352
76	0xbef24801	-0.4732056
77	0xbda58833	-0.080826186
78	0x3f11b2e6	0.569136
79	0xbcd9edc7	-0.026602639
80	0x3ec0719a	0.3758667
81	0xbee4824d	-0.44630662
82	0x3f11889c	0.56849074
83	0xbc9e0257	-0.019288225
84	0xbd7df767	-0.06200352
85	0xbe68b28b	-0.22724359
86	0x3f2c66a8	0.6734414
87	0x3f21cba4	0.63201356
88	0x3dabca8b	0.083882414
89	0xbe089e49	-0.13341631
90	0x3dda7eca	0.10668714
91	0xbea60d68	-0.32432103
92	0xbe62486c	-0.22097939
93	0xbd9fc12c	-0.078005165
94	0x3f1a7416	0.60333383
95	0x3f32e93e	0.6988715
96	0x3f0d9e89	0.5532003
97	0xbe760c0e	-0.24028036
98	0xbc5c6629	-0.013452091
99	0x3e8629f9	0.26203898
100	0xbd465d06	-0.048428558
101	0xbeaf5d95	-0.34251085
102	0xbf462db6	-0.774135
103	0x3eb2b46f	0.34903285
104	0x3e2adc81	0.16685678

model/dense_1/MatMul f4 [10, 15]
0	0xbe310025	-0.17285211
1	0x3f4297f7	0.7601313
2	0xbe8ffd9b	-0.28123173
3	0xbd0ed9ed	-0.0348758
4	0xbe972e09	-0.2952731
5	0x3d2521d9	0.040315483
6	0x3eb52846	0.3538229
7	0x3ee46e7a	0.44615537
8	0xbe03bd17	-0.12865101
9	0x3e3874c0	0.18013287
10	0xbf1a1029	-0.6018091
11	0xbf000489	-0.5000692
12	0x3ea2bdfd	0.31785575
13	0xbe551018	-0.2080692
14	0xbd9039ff	-0.07042312
15	0xbe70d23a	-0.23517695
16	0x3e7e7a2f	0.24851297
17	0x3dd89458	0.10575169
18	0xbcba4180	-0.022736311
19	0x3e5bde62	0.21471551
20	0xbd32d5f1	-0.04366106
21	0x3cb16f73	0.021659588
22	0xbe531f7f	-0.20617484
23	0xbea2d873	-0.31805763
24	0xbd5d0428	-0.05395904
25	0xbe3aec18	-0.18254125
26	0x3e939cdb	0.2883061
27	0xbe70e7fd	-0.23525997
28	0xbdbb6717	-0.09150522
29	0xbe108368	-0.14112628
30	0xbe62425e	-0.2209563
31	0xbf10fff2	-0.5664054
32	0xbe011fa7	-0.1260973
33	0x3ed68ca1	0.41904166
34	0xbf3acbb6	-0.7296709
35	0xbef04023	-0.46923932
36	0x3e9a8c4a	0.30185157
37	0xbe69919c	-0.22809452
38	0x3e844f7d	0.25841895
39	0xbde953ef	-0.11392962
40	0x3e6d2cf7	0.23161684
41	0xbebee506	-0.37284106
42	0x3efea72c	0.49736917
43	0x3e387a9a	0.18015519
44	0x3ea11de5	0.3146812
45	0xbee9c843	-0.456606
46	0x3dc54454	0.09632173
47	0xbebcd971	-0.36884645
48	0xbd6469c0	-0.055764914
49	0xbec629dc	-0.3870381
50	0xbe930038	-0.28711104
51	0xbecc6650	-0.39921808
52	0x3ed513e7	0.41616747
53	0xbee803f4	-0.45315516
54	0x3e588a5e	0.21146533
55	0xbc58bd3c	-0.013228711
56	0x3da9e9f2	0.08296575
57	0xbda74bdc	-0.08168766
58	0xbd54de68	-0.051969916
59	0x3eb2e859	0.34942892
60	0x3daab4fc	0.08335301
61	0xbe905d90	-0.28196383
62	0xbec19a4e	-0.37813038
63	0xbfa5e356	-1.2960002
64	0x3e6974c4	0.22798449
65	0x3e6f577f	0.23373221
66	0xbea5837e	-0.32326883
67	0xbebb0f48	-0.36535096
68	0x3f06f8d3	0.52723426
69	0xbe978ac9	-0.29598072
70	0xbf0478d7	-0.51746887
71	0x3ca16ab8	0.019704208
72	0x3e288fa5	0.16461046
73	0xbeb42ab1	-0.3518882
74	0x3e8c63f0	0.27419996
75	0x3d03043b	0.031986456
76	0xbec310f6	-0.38098878
77	0x3eac458b	0.33646807
78	0xbe87004e	-0.2636742
79	0x3c98a8da	0.018635202
80	0xbbdacc9f	-0.0066772248
81	0x3e4735bc	0.19454092
82	0xbd8185c9	-0.063243456
83	0xbea008f3	-0.31256828
84	0xbc51386f	-0.0127698025
85	0xbe557e6f	-0.20849012
86	0x3ef18e14	0.4717871
87	0x3e3c6a53	0.18399934
88	0x3f60a4e4	0.87751603
89	0x3f1890cd	0.5959595
90	0x3e915399	0.28384092
91	0x3f512a5d	0.81705266
92	0x3e66d9ea	0.22544065
93	0x3eaeaf53	0.34118137
94	0xbeaefc7b	-0.34177002
95	0x3f011372	0.50420296
96	0xbebb8f9c	-0.36633003
97	0x38cab666	9.666085e-05
98	0xbeabf15f	-0.3358259
99	0x3f2140b3	0.6298935
100	0x3e439b49	0.19102205
101	0x3e592e52	0.21209076
102	0x3ebef0ea	0.37293178
103	0x3f1101c7	0.56643337
104	0xbea3af17	-0.3196952
105	0x3f3880e4	0.7207167
106	0x3f3fbff2	0.7490226
107	0x3ea4c691	0.32182744
108	0x3ef0c9eb	0.4702905
109	0x3db013b3	0.08597507
110	0x3d5d1c36	0.053981982
111	0x3ed1cc6a	0.40976268
112	0xbe160843	-0.14651589
113	0x3e8f674d	0.280085
114	0xbf98856d	-1.1915718
115	0xbeb90c1a	-0.36142045
116	0xbf440192	-0.76564896
117	0x3e0af030	0.13568187
118	0xbe69769f	-0.22799157
119	0xbf2674c4	-0.6502192
120	0x3e2313a2	0.15925458
121	0xbdce732c	-0.10080561
122	0xbebea6ec	-0.37236726
123	0xbe178d65	-0.14800031
124	0xbea6474b	-0.32476267
125	0x3db86cdc	0.09005138
126	0xbec5129c	-0.3849076
127	0x3e476896	0.1947349
128	0xbc3a8591	-0.011384384
129	0x3eb6dd78	0.35715842
130	0x3e270c53	0.16313295
131	0xbe2f7723	-0.17135291
132	0xbed27694	-0.41106093
133	0xbe828349	-0.25490788
134	0xbd937650	-0.07200301
135	0xbcb2504f	-0.02176681
136	0xbe948a4f	-0.2901177
137	0x3e919e19	0.2844093
138	0xbee79777	-0.45232746
139	0xbe477206	-0.1947709
140	0xbf6d3f9e	-0.926752
141	0x3e46f9ab	0.19431178
142	0xbb852a16	-0.004063855
143	0x3f047ef4	0.51756215
144	0xbedd369a	-0.4320572
145	0xbf443a37	-0.7665133
146	0x3ebefc54	0.37301886
147	0xbe9fdca4	-0.31223023
148	0x3d1f3090	0.038864672
149	0x3f82ffc0	1.0234299

model/dense_2/MatMul f4 [22, 10]
0	0xbe0fd579	-0.14046277
1	0xbe3bc239	-0.18335809
2	0x3e1657ac	0.14681882
3	0xbeccf1d9	-0.40028265
4	0x3ed5b451	0.41739133
5	0xbf07c341	-0.5303231
6	0x3ec50bb7	0.384855
7	0x3ddc8daa	0.10769208
8	0xbd9999b5	-0.075000204
9	0xbf84e49a	-1.0382264
10	0x3f8ea4d8	1.1144056
11	0xbeb674a6	-0.3563587
12	0xbdbd68c6	-0.092484996
13	0x3e3b6636	0.18300709
14	0xbdb30eb8	-0.08743042
15	0xbeb31dd5	-0.34983698
16	0xbfad012d	-1.3515984
17	0xbef3f138	-0.47644973
18	0x3e2a1664	0.16610104
19	0xbe55dae7	-0.20884286
20	0x3e036576	0.12831673
21	0xbe9302f9	-0.28713205
22	0xbef9be9f	-0.48778245
23	0x3e08c0a8	0.13354743
24	0xbed51de9	-0.41624382
25	0x3f07a71d	0.5298937
26	0xbf33e358	-0.70268774
27	0xbe9add87	-0.30247137
28	0xbebb75f4	-0.3661343
29	0x3cca6b31	0.024709316
30	0x3e09d21d	0.13459058
31	0x3e7240b8	0.236575
32	0x3f81ad5d	1.0131031
33	0x3d5848b4	0.05280371
34	0x3eb2ca40	0.3491993
35	0x3cd15887	0.025554908
36	0xbeb532de	-0.3539037
37	0xbfba04e0	-1.4532738
38	0xbeb02ef6	-0.34410828
39	0xbf257c6b	-0.6464297
40	0xbf8cbce2	-1.0995142
41	0x3e8f2d76	0.2796437
42	0x3e855d6f	0.26047847
43	0xbe532c19	-0.2062229
44	0xbd3d6d5f	-0.046246883
45	0xbdbf9835	-0.09355203
46	0xbfe1341b	-1.7594026
47	0x3eba8dbe	0.36436266
48	0x3d371107	0.044693973
49	0xbdc52597	-0.0962631
50	0x3e6db18e	0.23212263
51	0x3e5c5cfa	0.21519843
52	0x3f003a69	0.50089127
53	0x3d276cce	0.04087525
54	0x3ed6d0c8	0.41956162
55	0xc00b3c98	-2.1755733
56	0xbe2896e3	-0.16463809
57	0x3e154c2a	0.14579836
58	0x3e10b1b7	0.14130293
59	0xbf859c25	-1.0438277
60	0x3eb6b2f9	0.3568342
61	0x3e9f1c2a	0.31076175
62	0xbf770ff1	-0.965087
63	0xbe8f74f5	-0.2801892
64	0xbc0709de	-0.008242099
65	0xbeafc282	-0.34328085
66	0xbe4c9cbf	-0.19981669
67	0x3ecda738	0.4016664
68	0xbe9ae40a	-0.30252105
69	0xbfa8ea48	-1.3196497
70	0xbf2f2e56	-0.6843008
71	0xbed8a960	-0.42316723
72	0x3e21ab7a	0.1578807
73	0xbeed49aa	-0.46345264
74	0x3e96608c	0.29370534
75	0xbd1030de	-0.035202853
76	0x3f0639eb	0.52432126
77	0xbf54d0ce	-0.8313111
78	0xbcb4625f	-0.022019563
79	0xbf992a02	-1.1965945
80	0x3e6f7e7b	0.23388092
81	0x3ecc7cbb	0.39938912
82	0x3dc24a1c	0.094867915
83	0x3db6bbc9	0.08922536
84	0xbed799c3	-0.42109498
85	0xbf22a933	-0.6353943
86	0xbfdacd26	-1.7093856
87	0x3e8401a1	0.25782493
88	0xbec86d2b	-0.3914579
89	0x3e3453b2	0.17610052
90	0xbec49f52	-0.38402802
91	0xbebc0f0f	-0.3673024
92	0x3d8fd3d3	0.07022824
93	0x3e0b52cd	0.13605805
94	0x3c8da0fb	0.017288676
95	0x3dbbc12c	0.09167704
96	0xbdb31451	-0.087441094
97	0xbf773857	-0.9657034
98	0xbddd9496	-0.10819356
99	0x3f1c8996	0.6114744
100	0xbf146719	-0.57969815
101	0xbe031633	-0.12801437
102	0xbf148a58	-0.58023596
103	0x3e6c6c60	0.23088217
104	0xbe917f3b	-0.28417382
105	0x3ef3ee38	0.47642684
106	0xbe4ea582	-0.20180324
107	0xbde09362	-0.10965611
108	0x3e691769	0.22762837
109	0xbf4b0ef3	-0.79319686
110	0x3f10bdeb	0.5653979
111	0xbe9f58c2	-0.31122404
112	0xbef42d9f	-0.47691056
113	0xbeaa3486	-0.33243197
114	0xbe68548c	-0.22688502
115	0xbeadf771	-0.33977845
116	0xbf1de60a	-0.61679137
117	0x3e4e6d75	0.20158942
118	0xbb98566b	-0.0046489737
119	0xbd311223	-0.043230187
120	0xbe8cdd22	-0.2751246
121	0x3ec2d2bf	0.38051412
122	0x3f611fe6	0.879393
123	0x3eb1dee8	0.34740376
124	0xbe72b3c6	-0.2370139
125	0xbe822008	-0.25415063
126	0xbf62954b	-0.88509053
127	0xbdd4316e	-0.103609905
128	0x3e8176d0	0.2528596
129	0x3de51231	0.1118511
130	0xbe36231a	-0.17786828
131	0xbe623c51	-0.22093321
132	0x3dc3d54f	0.0956217
133	0xbe1a470e	-0.15066168
134	0xbf976bc4	-1.1829762
135	0x3e88ca6b	0.26716933
136	0x3c7403f4	0.014893521
137	0xbe6032dd	-0.21894403
138	0x3d14c1e4	0.03631772
139	0x3e95c4e3	0.29251775
140	0xbe7ee8bd	-0.2489347
141	0x3e905924	0.2819301
142	0xbf55f64c	-0.83578944
143	0xbacc93c9	-0.0015608008
144	0xbf17535a	-0.5911156
145	0xbd16515f	-0.036698695
146	0xbe4acac6	-0.19803914
147	0x3f0b419d	0.5439699
148	0x3ead948c	0.33902395
149	0xbfa89135	-1.3169314
150	0xbd7a5a4f	-0.06112128
151	0x3ea77a0c	0.32710302
152	0xbed24d66	-0.41074675
153	0xbc82553b	-0.015909782
154	0xbd8570be	-0.065156445
155	0xbdd07068	-0.1017769
156	0x3ee1c252	0.44093567
157	0xbf030640	-0.5118141
158	0x3ec723b6	0.38894433
159	0x3d039e1d	0.03213321
160	0xbf834fea	-1.0258763
161	0xbe42d996	-0.19028315
162	0xbe175783	-0.14779477
163	0x3d8c6c83	0.068566345
164	0xbf385ba7	-0.7201485
165	0x3ef386d8	0.47563815
166	0xc006b45e	-2.1047587
167	0xbcd323d6	-0.025773924
168	0x3dc15622	0.09440257
169	0xbbd66cf9	-0.0065437523
170	0x3e553c30	0.20823741
171	0xbeb9a572	-0.36259037
172	0x3e617ec3	0.22021012
173	0xbe8413a1	-0.25796226
174	0x3ee2e742	0.4431706
175	0xbe14d536	-0.14534459
176	0x3d17c8a6	0.037056588
177	0x3dfd8df6	0.123805925
178	0x3e9317bb	0.28729042
179	0xbdc96375	-0.09833423
180	0xbe736b29	-0.23771347
181	0xbe59c606	-0.21266946
182	0xbe8c33c2	-0.27383238
183	0x3ea8bc6f	0.32956263
184	0xbe8a2983	-0.26984796
185	0xbe65033e	-0.22364518
186	0xbf6ed17c	-0.932884
187	0x3da892ac	0.082311004
188	0xbeb580d6	-0.35449857
189	0x3f2c55c7	0.67318386
190	0xbf1e32eb	-0.61796445
191	0xbee408f6	-0.44538087
192	0x3ea1dcd0	0.3161378
193	0xbd9e4be1	-0.077293165
194	0xbdc19b4f	-0.09453451
195	0x3eba73d5	0.36416498
196	0xbf74d296	-0.9563383
197	0x3debc582	0.11512281
198	0xbea5f104	-0.32410443
199	0xbf5fd99f	-0.8744144
200	0xbc6e6fab	-0.014552991
201	0x3ad278e2	0.0016057754
202	0xbaae9885	-0.0013320601
203	0xbe10ba58	-0.14133584
204	0xbeb2a982	-0.3489495
205	0xbf84ef4e	-1.038553
206	0xbfa188c3	-1.2619861
207	0x3ed2e222	0.4118815
208	0xbe844ec6	-0.2584135
209	0x3e00be08	0.12572491
210	0x3ec6f6d7	0.388602
211	0xbe33d7f2	-0.17562845
212	0x3e860d0e	0.26181835
213	0x3ecf0b8a	0.4043849
214	0x3e21827e	0.15772435
215	0x3c9b0dcf	0.018927483
216	0xbc813843	-0.015773898
217	0xbf011419	-0.5042129
218	0x3e5958ef	0.21225332
219	0xbfd098bb	-1.629661
